best_model.pth (torch, 4006 bytes, 5 tensors)

layer1.weight f4 [4, 84]
0	0x3e72b239	0.23700799
1	0xbe3ba693	-0.18325262
2	0xbd88ed21	-0.06685854
3	0x3cc690fd	0.024239058
4	0x3deba6b6	0.11506407
5	0x3de1224d	0.109928705
6	0xbc58e596	-0.013238331
7	0x3ca0655e	0.019579586
8	0x3c0a7fdc	0.008453336
9	0x3cce6367	0.025193883
10	0x3e299331	0.16560055
11	0xbd7d33b0	-0.06181687
12	0x3c22a48a	0.0099269245
13	0x3c9e7b7e	0.019345995
14	0x3cd3a57e	0.025835749
15	0x3c7a293c	0.01526862
16	0x3d0df684	0.034658924
17	0xbd0560bc	-0.032562956
18	0xbd95fed5	-0.07323996
19	0xbddcf521	-0.10788942
20	0xbcec40e5	-0.028839538
21	0xbd14e555	-0.03635152
22	0xbcd64e3d	-0.026160354
23	0xbc225b84	-0.009909514
24	0x3cb9715a	0.022637058
25	0xbd89a923	-0.067217134
26	0x3d0eca0a	0.03486065
27	0x3dab9e34	0.08379784
28	0x3b9312d8	0.0044883303
29	0x3d187e0f	0.037229594
30	0x3e718c33	0.23588638
31	0xbd01ca55	-0.0316871
32	0x3cd300c9	0.02575721
33	0x3d5eda47	0.054407384
34	0x3d0467df	0.03232562
35	0x3d9d9831	0.07695044
36	0x3d09a43e	0.0336039
37	0xbd031f71	-0.032012407
38	0x3e14efa8	0.14544547
39	0x3d8d2088	0.068909705
40	0x3ba399e8	0.0049927123
41	0x3e5333b7	0.20625196
42	0x3eaad483	0.3336526
43	0x3e59c4c1	0.21266462
44	0xbd3108b8	-0.043221205
45	0xbccf8660	-0.02533263
46	0x3d0031ff	0.03129768
47	0x3cd7a988	0.026325956
48	0x3d25c7d2	0.040473767
49	0x3cb00e5f	0.021491228
50	0xbce3e8c4	-0.027820952
51	0xbd1cf27f	-0.0383172
52	0xbc8050b0	-0.015663475
53	0xbdb680a4	-0.08911255
54	0xbc93bece	-0.018035319
55	0x3dc357f8	0.09538263
56	0xbc996d91	-0.018729003
57	0x3d80c739	0.06287999
58	0xbd5d1b43	-0.053981077
59	0xbd0e31d8	-0.034715503
60	0x3d907dc1	0.07055236
61	0xbcca056d	-0.02466079
62	0xbd9f7483	-0.07785895
63	0x3ba98632	0.005173468
64	0xbd53746e	-0.051624708
65	0x3d4655e7	0.048421767
66	0xba72a0af	-0.0009255511
67	0x3aa24985	0.001238153
68	0xbd1bd317	-0.038043108
69	0xbb3d0f2c	-0.0028848154
70	0xbc406792	-0.011743443
71	0x3c2bd0a4	0.0104867555
72	0x3c81734a	0.015802044
73	0xbd8bb7ce	-0.06822167
74	0x3d20670d	0.039160777
75	0xbafc273a	-0.0019237765
76	0xbcddc8da	-0.027073313
77	0x3cb619c8	0.02222909
78	0x3c342ba2	0.010996731
79	0xbc8904f4	-0.016725995
80	0x3d92df34	0.07171479
81	0x3dab3191	0.083590634
82	0xbe0978b9	-0.13424958
83	0xbbcebf15	-0.0063094
84	0x3e6afa34	0.22947007
85	0xbe33f3a6	-0.17573413
86	0xbd815e69	-0.063168354
87	0x3ca74e7b	0.020423165
88	0x3e148bfa	0.14506522
89	0x3dc80eec	0.09768471
90	0xbc0aaba7	-0.008463777
91	0x3c431002	0.011905672
92	0x3c2b44a6	0.010453379
93	0x3ce430d7	0.02785532
94	0x3e22cd61	0.15898658
95	0xbc981af8	-0.018567547
96	0x3b8cb5ab	0.0042941174
97	0x3cdf6e8e	0.027274396
98	0x3c892811	0.016742738
99	0x3d64c130	0.0558483
100	0x3cfc5152	0.030800495
101	0xbccbf259	-0.024895834
102	0xbd729971	-0.059228364
103	0xbde45294	-0.11148563
104	0xbcd6ba24	-0.026211806
105	0xbd251c37	-0.04031011
106	0xbc0c8d89	-0.0085786665
107	0xbada5d4f	-0.0016659888
108	0xbbafb2e0	-0.0053618997
109	0xbda5c188	-0.08093554
110	0x3d3c0e01	0.045911793
111	0x3d894d5a	0.06704207
112	0xbb96a693	-0.004597494
113	0x3d147383	0.036242973
114	0x3e6b6774	0.22988683
115	0xbccf63e6	-0.02531619
116	0x3c9317f9	0.017955767
117	0x3d4cd6c8	0.05000952
118	0x3d04aa94	0.03238924
119	0x3d699ea0	0.057036042
120	0x3cb04222	0.02151591
121	0xbd1d14f8	-0.038350075
122	0x3e298963	0.16556315
123	0x3d6414e4	0.055683985
124	0xbac4adb6	-0.0015005383
125	0x3e602b74	0.21891576
126	0x3ea34760	0.31890392
127	0x3e45222b	0.19251315
128	0xbd2681f4	-0.040651277
129	0xbca05600	-0.019572258
130	0x3ce808f8	0.02832459
131	0x3cc6bcc5	0.024259934
132	0x3d588c7a	0.052868344
133	0x3be045a3	0.006844239
134	0xbd0bd6e8	-0.034140497
135	0xbd101fef	-0.035186704
136	0x39e17438	0.00043001934
137	0xbdacf740	-0.08445597
138	0xbcdab607	-0.026698126
139	0x3d97f0f8	0.07419008
140	0xb9f90c48	-0.0004750213
141	0x3dae0dde	0.08498739
142	0xbd35a229	-0.0443441
143	0xbd2451fb	-0.040117245
144	0x3d8ea5f7	0.06965249
145	0xbc7c68d5	-0.015405853
146	0xbd90ad65	-0.070643224
147	0x3b36b1ea	0.002787704
148	0xbd647a05	-0.05578043
149	0x3d27b34e	0.040942483
150	0x3c453874	0.012037385
151	0xbb099a65	-0.0020996567
152	0xbd2a5834	-0.041588023
153	0x3c3c3a51	0.011488513
154	0xbb3080ef	-0.002693232
155	0x3cce7d2f	0.025206177
156	0x3cba36f0	0.022731274
157	0xbd8eee1b	-0.06979009
158	0x3d0df62d	0.0346586
159	0xbcc0230b	-0.02345421
160	0xbce7e3fc	-0.028306954
161	0x3c8b1a0f	0.0169802
162	0x3c11eeb4	0.008907009
163	0xbccf234e	-0.02528539
164	0x3d801efd	0.062559105
165	0x3d804f36	0.06265108
166	0xbe06fcd9	-0.13182391
167	0x3bcb1785	0.006197872
168	0xbe67ced3	-0.22637491
169	0x3e31212f	0.17297815
170	0x3d92453b	0.07142111
171	0xbc5772ef	-0.013149961
172	0xbdc5acaa	-0.09652074
173	0xbd8479a0	-0.06468511
174	0xbb94d3db	-0.0045418567
175	0x3baa9984	0.005206289
176	0x3c08c8a2	0.008348616
177	0xbb729a8e	-0.0037018391
178	0xbe0d0700	-0.13772202
179	0x3d5ce0f8	0.053925484
180	0x3baa27da	0.005192739
181	0x3d5cec73	0.053936433
182	0xbc01ea03	-0.007929328
183	0x3d494708	0.049140006
184	0x3c862a5e	0.016377624
185	0x3d4d16fa	0.05007074
186	0x3d992171	0.074770816
187	0x3d7cb40e	0.06169515
188	0x3cb086e0	0.021548688
189	0x3b565468	0.0032704119
190	0x3d6bfdd1	0.057615105
191	0x3d850369	0.06494791
192	0x3da349ab	0.079730354
193	0x3d8f02be	0.06982945
194	0xbc84c271	-0.016205998
195	0xbd500013	-0.05078132
196	0x3b4abb05	0.0030934226
197	0xbc3350db	-0.01094457
198	0xbe479834	-0.19491655
199	0x3d5934d1	0.053028885
200	0x3c7e32b3	0.015515017
201	0xbd071103	-0.032975208
202	0x3d1c2c94	0.03812845
203	0xbd6feec6	-0.05857732
204	0xbc5c3f15	-0.013442774
205	0x3d4a2d7f	0.049359795
206	0xbde91609	-0.11381156
207	0xbcb0784c	-0.021541737
208	0x3d3c2d97	0.045941915
209	0xbe2d4a45	-0.16922863
210	0xbe93ddf6	-0.2888028
211	0xbd91701f	-0.071014635
212	0x3da0964d	0.078411676
213	0x3d8f9609	0.07011039
214	0xbd124652	-0.035711594
215	0xbd7819be	-0.060571425
216	0xbd842961	-0.06453205
217	0x3d6cf2f8	0.0578489
218	0x3a1609b1	0.000572349
219	0x3d7e53ac	0.062091514
220	0xbc553ea2	-0.013015421
221	0x3d99be5b	0.075070105
222	0x3d6c0a74	0.057627156
223	0xbd8d7129	-0.06906349
224	0x3ced3a85	0.028958568
225	0xbc524059	-0.0128327245
226	0x3d9d12ee	0.07669626
227	0xbd12de9f	-0.03585684
228	0xbd2ca1c5	-0.042146463
229	0xbc828c17	-0.01593594
230	0x3da5a8ac	0.08088812
231	0x3d083b11	0.033259455
232	0x3d5eaedf	0.05436599
233	0xbd061225	-0.032732148
234	0x3cdc5ef2	0.026900742
235	0x3b37dc00	0.0028054714
236	0x3ca7e08a	0.02049281
237	0xbd736d01	-0.059430126
238	0x3d21069a	0.039312936
239	0x3d667897	0.056267347
240	0xbd2f3ec6	-0.042784475
241	0x3cfb5061	0.030677976
242	0x3ad8a7aa	0.001652946
243	0x3d83c372	0.064337626
244	0x3ca291da	0.019844938
245	0x3c2682cd	0.010163021
246	0xbd27abed	-0.040935446
247	0x3d8a8bff	0.067649834
248	0xbd28b3b4	-0.041187003
249	0x3a06e5d8	0.0005145944
250	0x3de841c0	0.11340666
251	0xbc774184	-0.015091304
252	0x3e681901	0.22665788
253	0xbe1eead9	-0.15519275
254	0xbd81e9fc	-0.06343457
255	0x3d02df0b	0.03195099

layer1.bias f4 [4]
0	0x3c44965f	0.011998742
1	0xbc26d716	-0.010183116
2	0x3d060c27	0.032726433
3	0xbc937b60	-0.018003166

layer2.weight f4 [3, 4]
0	0xb35f35ba	-5.1970098e-08
1	0xb21fd4f5	-9.303439e-09
2	0x2526e90a	1.4477162e-16
3	0xb0a207e8	-1.1789298e-09
4	0x3ebd2598	0.36942744
5	0x3ea3f8ff	0.32025906
6	0xbeb88e77	-0.36046192
7	0x3eb60d79	0.35557154
8	0x3e38dbb0	0.18052554
9	0x3e6bfeb0	0.23046374
10	0xbe849e5b	-0.25902066
11	0x3e4cdd8e	0.20006391

layer2.bias f4 [3]
0	0xa9121c58	-3.2443097e-14
1	0xbd4a316c	-0.04936354
2	0xbd0b6124	-0.034028187

layer3.weight f4 [1, 3]
0	0xb4aef455	-3.25878e-07
1	0x3ed2c44e	0.41165394
2	0x3e99df4d	0.30053177
